…
    keras.layers.Flatten(input_shape=[28, 28]),
    keras.layers.BatchNormalization(),
    keras.layers.Dense(300, activation="relu"),
    keras.layers.BatchNormalization(),
    keras.layers.Dense(100, activation="relu"),
    keras.layers.BatchNormalization(),
    keras.layers.Dense(10, activation="softmax")
])
model.summary()
#+end_src

#+RESULTS:
#+begin_example
Model: "sequential"
_________________________________________________________________
Layer (type)                 Output Shape              Param #
=================================================================
flatten (Flatten)            (None, 784)               0
_________________________________________________________________
batch_normalization (BatchNo (None, 784)               3136
_________________________________________________________________
dense (Dense)                (None, 300)               235500
_________________________________________________________________
batch_normalization_1 (Batch (None, 300)               1200
_________________________________________________________________
dense_1 (Dense)              (None, 100)               30100
_________________________________________________________________
batch_normalization_2 (Batch (None, 100)               400
_________________________________________________________________
dense_2 (Dense)              (None, 10)                1010
=================================================================
Total params: 271,346
Trainable params: 268,978
Non-trainable params: 2,368
_________________________________________________________________
#+end_example

#+begin_src jupyter-python
bn1 = model.layers[1]
[(var.name, var.trainable) for var in bn1.variables]
#+end_src

#+RESULTS:
| batch_normalization/gamma:0           | True  |
| batch_normalization/beta:0            | True  |
…
7/7 [==============================] - 0s 6ms/step - loss: 0.1224 - accuracy: 0.9931 - val_loss: 0.1482 - val_accuracy: 0.9716
Epoch 20/20
7/7 [==============================] - 0s 6ms/step - loss: 0.1096 - accuracy: 0.9912 - val_loss: 0.1431 - val_accuracy: 0.9716
#+end_example

#+begin_src jupyter-python
model_B.summary()
#+end_src

#+RESULTS:
#+begin_example
Model: "sequential_3"
_________________________________________________________________
Layer (type)                 Output Shape              Param #
=================================================================
flatten_3 (Flatten)          (None, 784)               0
_________________________________________________________________
dense_12 (Dense)             (None, 300)               235500
_________________________________________________________________
dense_13 (Dense)             (None, 100)               30100
_________________________________________________________________
dense_14 (Dense)             (None, 50)                5050
_________________________________________________________________
dense_15 (Dense)             (None, 50)                2550
_________________________________________________________________
dense_16 (Dense)             (None, 50)                2550
_________________________________________________________________
dense_17 (Dense)             (None, 1)                 51
=================================================================
Total params: 275,801
Trainable params: 275,801
Non-trainable params: 0
_________________________________________________________________
#+end_example

#+begin_src jupyter-python
model_A = keras.models.load_model("my_model_A.h5")
model_B_on_A = keras.models.Sequential(model_A.layers[:-1])
model_B_on_A.add(keras.layers.Dense(1, activation="sigmoid"))
…
        return super().call(inputs, training=True)
#+end_src

#+RESULTS:

#+begin_src jupyter-python
tf.random.set_seed(42)
np.random.seed(42)

mc_model = keras.models.Sequential([
    MCAlphaDropout(layer.rate) if isinstance(layer, keras.layers.AlphaDropout) else layer
    for layer in model.layers
])
mc_model.summary()
#+end_src

#+RESULTS:
#+begin_example
Model: "sequential_17"
_________________________________________________________________
Layer (type)                 Output Shape              Param #
=================================================================
flatten_16 (Flatten)         (None, 784)               0
_________________________________________________________________
mc_alpha_dropout (MCAlphaDro (None, 784)               0
_________________________________________________________________
dense_49 (Dense)             (None, 300)               235500
_________________________________________________________________
mc_alpha_dropout_1 (MCAlphaD (None, 300)               0
_________________________________________________________________
dense_50 (Dense)             (None, 100)               30100
_________________________________________________________________
mc_alpha_dropout_2 (MCAlphaD (None, 100)               0
_________________________________________________________________
dense_51 (Dense)             (None, 10)                1010
=================================================================
Total params: 266,610
Trainable params: 266,610
Non-trainable params: 0
_________________________________________________________________
#+end_example

#+begin_src jupyter-python
optimizer = keras.optimizers.SGD(lr=0.01, momentum=0.9, nesterov=True)
mc_model.compile(loss="sparse_categorical_crossentropy", optimizer=optimizer, metrics=["accuracy"])
…
